corrparam_list2ii100m500 (3).npy (npy, 8128 bytes, 1 tensors)

array f8 [500, 2]
00000000: b099 799e df0a 00c0 25db f9f5 7266 893f
00000010: 2a00 b0f8 ebdf e4bf a670 fdb0 b4a0 7d3f
00000020: 4f33 e38c 47e9 f2bf 7693 d8ee 694e 833f
00000030: 5733 234e 94e3 fbbf d2f7 13c3 f0a4 883f
00000040: 7c66 6667 a398 02c0 f4d2 4dea 711b 8c3f
00000050: df00 0000 2098 bcbf 94ed 7c3f 5587 723f
00000060: bc99 250b 23a2 fabf 9618 3495 f441 873f
00000070: 8d66 9845 ba8d fcbf 24db 41d9 0a59 883f
00000080: 18cd cc4c aa0a dcbf 6866 6666 d187 793f
00000090: c299 ed79 5f8f ffbf 6cbc c483 810b 8a3f
000000a0: c899 f172 ba5c e8bf 5262 705f a5d3 7f3f
000000b0: 7a66 2641 7034 00c0 fb7e 6ab2 e5c7 893f
000000c0: 8b66 5284 9a90 fbbf 26db a937 9737 883f
000000d0: 8666 66ca 3ffa f6bf f07c 3fc5 3e6b 853f
000000e0: 1833 7b3b 7d99 dd3f d24d 42d9 82ef 643f
000000f0: c099 9999 c12f e0bf f6fd d478 297a 7a3f
00000100: 4c00 009c 1b7a ddbf 24db f936 fcf7 783f
00000110: c019 8c5d 6621 ffbf 400a 812f 51b7 893f
00000120: eacc 2f5d 3589 f7bf 1e5a 303b ef96 853f
00000130: da32 3393 fbcb c03f 653b dfef 9209 703f
00000140: b009 8ee0 324d 00c0 b2f2 3310 9115 8a3f
00000150: 9866 6697 8cd8 eebf 2931 086e 7bcd 813f
00000160: af99 b9ab ddf6 02c0 0aac 1c1b 4fd7 8c3f
00000170: 1c80 46b0 ef07 f1bf 64e5 ca4e 8449 823f
00000180: 5865 8bd3 9920 ffbf 3450 aaf5 2d69 893f
00000190: 4833 3333 373f 02c0 ead0 22db 39f9 8b3f
000001a0: 7a99 9959 74cd d93f 3ab4 c876 a339 673f
000001b0: 7a66 a6d0 5366 00c0 2831 085e 65c9 8a3f
000001c0: 5633 5397 7c75 fbbf 0f02 abaf 3a40 883f
000001d0: f9cc c40e cf7d e7bf 0756 eece 23d7 7d3f
000001e0: 5033 3338 fa9b f4bf 0d02 2b5b f6d0 833f
000001f0: a8cc cccc ac18 d03f 508d 976e 127c 6a3f
00000200: bc99 79f0 35d9 fcbf c19f 9a32 1052 883f
00000210: 5a33 e366 8119 febf a89b 84f3 b64e 893f
00000220: 8266 6646 131b f4bf 9518 04d6 f9b3 833f
00000230: 1400 d2fb b014 00c0 0881 25cd 8237 8a3f
00000240: 8666 66d6 5550 f6bf 93ed 7cff ce89 843f
00000250: 1c00 4d86 910e f2bf 5fba 3d4b 96ae 823f
00000260: b899 19dd 9c65 f4bf 3cb4 c824 7ebb 833f
00000270: 1400 a0b6 0bb3 00c0 cecc cc71 ef9f 8a3f
00000280: 0898 99f9 8598 a23f ac1c 5acc 83e1 713f
00000290: 8866 3e60 633c f9bf 400a 378d f304 863f
000002a0: bb99 73f3 005e f9bf c520 9815 bddf 853f
000002b0: 5993 8e22 69e3 fcbf 50b7 fe81 03e4 883f
000002c0: efcc 94cc 1d52 fabf bf74 b3cd 812f 873f
000002d0: 4a33 a95c 5b6b 04c0 1ad9 7e44 2597 8e3f
000002e0: 1400 b08c 3ac0 00c0 2c5c 0fb0 c394 8a3f
000002f0: 8e7e ddb6 8f47 ffbf 9122 c40a 1ecc 893f
00000300: 8e66 e64d 4eca fdbf 3e0a d7e1 3d7a 883f
00000310: 1e00 0040 e9d7 f3bf bc1e 85eb 2b72 833f
00000320: bc19 3be6 326c fabf def9 24c0 e423 873f
00000330: 8e66 b632 5864 febf 7ce9 665e 0191 893f
00000340: 2000 20ce 6571 f7bf 3ddf cfdd 707b 853f
00000350: 4833 e3d0 e5b9 01c0 c0ca 21bb 47e7 8b3f
00000360: 5673 42ed 1cb0 fabf 7a93 c522 ee5e 873f
00000370: e2cc 6c74 147d 00c0 4ae1 7ac1 51e5 8a3f
00000380: ba99 99d4 59bf f7bf 24b0 7294 92e3 853f
00000390: 1500 800b 2b99 02c0 7893 18a0 e348 8c3f
000003a0: 9866 26a1 db32 ebbf cfcc 4cca d7b1 803f
000003b0: eccc cc8d d6d1 f6bf 458b 6cab 6fbf 843f
000003c0: 9766 66a6 e83b e9bf 528d 97ee 6e5a 803f
000003d0: 4a33 3333 e712 02c0 19ae 47e1 bab1 8b3f
000003e0: 90e6 f97f 9555 ffbf 4e62 fe0e 398e 8a3f
000003f0: 2600 4a2f e61c fcbf 4f37 318e c896 883f
00000400: 5c33 3373 2780 e0bf c0ca a145 d8f8 793f
00000410: 5233 43fa 41db f7bf 8c6c 2724 5220 863f
00000420: 8266 8e7f ee7e f2bf 3cb4 6819 5a2e 833f
00000430: 7866 f6cc 2c7e 00c0 7893 9890 b2db 8a3f
00000440: 2600 64a5 1287 fdbf fc7e fa4c 9245 893f
00000450: 5893 0ef6 cc1b fdbf 69e6 db94 99c4 883f
00000460: 5833 cd13 64ec fdbf 48b6 dbcb 01ab 883f
00000470: 8266 76bd 9119 f3bf c84b 77f1 05c3 833f
00000480: 5133 3323 1726 f5bf 92c2 f5e8 672c 843f
00000490: 2a40 61e7 a80f e4bf b047 5644 e0dc 7c3f
000004a0: 4733 794d 0d9b 00c0 102d e228 7307 8b3f
000004b0: c399 87f1 1f7f e3bf dcf9 b6c4 5548 7d3f
000004c0: 1500 0000 0424 02c0 24b0 7268 d1e7 8b3f
000004d0: 4833 e30d ef1b 01c0 b372 e8ee ca51 8b3f
000004e0: eccc cc42 5361 f8bf a89b c478 8a7e 863f
000004f0: e2cc 4c2c dfbf 01c0 9dc4 20ec 14e3 8b3f
00000500: f4cc a76d d469 febf d0f7 fffe bc8d 893f
00000510: 5633 8382 838f fabf 826a fced bca9 873f
00000520: 5433 3333 878b f5bf 4235 5eba e92f 843f
00000530: c289 7d2e eb28 ffbf ce8c 9039 64cb 893f
00000540: 5933 ffab c78e febf fa53 1372 1e2f 8a3f
00000550: 2400 b020 b19b fabf 0656 ce73 e215 873f
00000560: 9966 6603 8228 ebbf 1583 c0e4 79ee 803f
00000570: 2400 1067 cb71 fcbf 1f5a a4e3 df4e 883f
00000580: 5233 b35a f9c1 f4bf 4e37 897f 5654 843f
00000590: 40cd cc14 9c0e c4bf 6ee7 fb71 568a 733f
000005a0: b433 3323 ef90 cebf 996e 1273 c9d2 753f
000005b0: 4a66 2669 25e1 dc3f a01a 2fc2 312d 653f
000005c0: 7c66 e66e 14c4 02c0 375e ba4d 4535 8c3f
000005d0: ba19 4760 6516 f9bf 9fef 7ddd 7218 863f
000005e0: 1b00 e044 d41b f1bf e27a 94e9 341e 823f
000005f0: 7ca6 6da9 8f05 00c0 400a f1dc 14a4 8a3f
00000600: 00cd cccc 5fbe ebbf dcce f753 692f 813f
00000610: 1340 bb8b 943f 00c0 7abe 5987 948d 893f
00000620: 4f33 d3ba 69f6 f2bf b047 61d1 4968 833f
00000630: efcc 3ce5 8e12 fbbf 8e97 2e08 ca0c 883f
00000640: ad99 19a7 e272 01c0 c09f 1adb 39cd 8a3f
00000650: 4a33 73f1 5c24 01c0 91c2 f57a 6555 8b3f
00000660: 7a66 f6ff 83e2 00c0 6fe7 7b4e fc1e 8b3f
00000670: 1a80 7aa7 f7b9 f0bf b047 ab9a a4e8 813f
00000680: ae66 6666 1685 d8bf 1e5a 643b 9f08 793f
00000690: 7e33 3333 81d8 dbbf a670 3d0a 33e0 783f
000006a0: 1bcd ccf4 ad8e debf 32dd 2456 b25b 7a3f
000006b0: e6cc cccc 6a43 f0bf ed51 b81e f50d 823f
000006c0: 5633 e311 a393 fabf 9843 4b2b e912 873f
000006d0: b899 9919 80e9 f5bf 205a 643b 334d 843f
000006e0: 4833 333b 788e 01c0 7abe 9f5a e336 8b3f
000006f0: eecc b49f ce8e f7bf 2606 216f 45d9 853f
00000700: ef5c 309e ed1a fabf 4ea2 0a8c d791 863f
00000710: c719 f78f 1686 e7bf 26b0 0842 d885 7f3f
00000720: e44c d488 12d7 03c0 1f5a e0ca 58b5 8d3f
00000730: c299 b995 2126 e1bf 7ae9 a6b9 d841 7a3f
00000740: e0cc cc5b 5c50 01c0 90c2 f520 b0d1 8a3f
00000750: 4a00 0000 4236 d8bf 9fef a7c6 0fe4 783f
00000760: ad99 058d e580 00c0 0cd7 03ce 21f0 8a3f
00000770: aacc 5c2c 4518 d33f 77be 5ff0 2dc4 693f
00000780: bd99 a951 14c9 fbbf 1002 6b33 2d3f 883f
00000790: 7f66 f61b ef75 05c0 28db 7903 78ad 8f3f
000007a0: 7a66 e6ce 9b7c 00c0 ec26 310c 50ae 8a3f
000007b0: 2300 c8bf 47bb fabf 1683 e07f 0a6d 873f
000007c0: 2800 d066 277a febf 1f5a a4b2 c896 893f
000007d0: 4a00 0000 8054 dbbf c520 b072 6833 793f
000007e0: 2100 c2e1 dce4 f9bf 7c14 3658 8f7b 863f
000007f0: 5833 2fbb 18c9 fabf c4f5 1809 6b8d 873f
-2.0053093319758872 0.012402437335578729 -0.652334199636248 0.007233339143422201 -1.181953001348308 0.009426906205655543 -1.7430613567587068 0.012033348992641555
-2.3245304182171918 0.013724222147837285 -0.11169624328613591 0.004523594856262209 -1.6645842013764272 0.011356268695191834 -1.7846014708106026 0.011888584857144453
-0.43815095424652517 0.006233041733503343 -1.9725031626527287 0.012717258294826027 -0.7613193745608493 0.007770200717481206 -2.0256047334522096 0.0125883050034754
-1.722803608782132 0.011824780832495895 -1.436095991730697 0.010458460230380301 0.4624932366248671 0.002555614055447222 -0.5058296203613324 0.006464159011840822
-0.4605778716504616 0.006095872129313649 -1.945654263896003 0.012556680929383224 -1.4709981575113553 0.010541790956307525 0.13122505843639126 0.003915380451828242
-2.0376946967455396 0.01273644762704271 -0.9639342267066295 0.00869270734349266 -2.370539990998814 0.014082544340984899 -1.0644375692136299 0.008929284719999493
-1.94545920023514 0.012407645282373016 -2.2808670043945405 0.013658954620361336 0.4031649470329267 0.0028351013809442523 -2.0499645520001737 0.01307944482052699
-1.7161832724697965 0.011841257558786315 -0.7341075218631935 0.0072852514994301626 -1.2880804248154227 0.00967590776178986 0.2515060424804667 0.003232990264892578
-1.8030299562029617 0.011875273269950417 -1.8812269228976306 0.012357167536334604 -1.2566101789474549 0.009620620578527453 -2.010103194566918 0.012801191220831246
-1.3946131110191415 0.010028474017977717 -1.1285567518352826 0.00912206093900386 -1.2748077999800511 0.009634957788046454 -2.0874246852472513 0.01300036493339576
0.036319910734889105 0.0043654583329334855 -1.5772432097932398 0.010751631495513725 -1.5854501256777513 0.010680653783325398 -1.8055201864128405 0.012153651623375034
-1.6450479499297292 0.011321081247326224 -2.552420352853379 0.014936724808518199 -2.0938616744242697 0.012979058084893046 -1.9549710410282475 0.012596354201847933
-1.8618910830468027 0.011951907591428609 -1.2402126789093084 0.009495108723640448 -1.6514157288926148 0.011298930276663673 -1.8994981747586368 0.012483606999798218
-1.465184979606427 0.010489351052441637 -2.2157703704200777 0.01362472572166007 -1.6679963367416426 0.011411533771658478 -2.0610741706565117 0.013132704464951534
-1.4842165283858848 0.010687966494821018 -2.324789132922897 0.013810900042764848 -0.8499582431279178 0.008151708470541056 -1.4262300051748822 0.01013076059240848
-0.7885630846023614 0.007984987884759907 -2.2592300415039164 0.013522586822509773 -1.9583945273465453 0.012966581125327139 -1.7570554587582676 0.012006346549380402
-0.5156438112258956 0.0063408325314521785 -1.4910297180060366 0.010803834656078835 -1.1559891684213714 0.00936575307886233 -2.061608887929477 0.013114352262229664
-1.8454767666407945 0.01233972833080043 -1.8192872630690626 0.012093734603229227 -1.8702126286982175 0.012044919999847484 -1.1937425042036982 0.00964932101388695
-1.3217994093895025 0.009850322529673581 -0.6269115943086991 0.007046581309070918 -2.0757089665043256 0.013197803197064789 -0.6092681615235097 0.007149062188032986
-2.2675857543945406 0.013625751495361334 -2.1386395535431895 0.013339600959676323 -1.5237610444426606 0.01098354512266815 -2.218687387555847 0.013616717773489656
-1.9008373530785407 0.012477375537851915 -1.660037526907407 0.011554218304401735 -1.3465644836425854 0.00985701179504395 -1.9474899116545292 0.0125949697558724
-1.909858390677263 0.01278518472319411 -1.6630107189994385 0.01127221027290216 -0.8486948076635655 0.008267357152421032 -1.7777818704489698 0.011869191298086666
-1.297356943413622 0.00992648674687371 -0.1566958524286779 0.004770600964315237 -0.23879803866148352 0.005327975189313294 0.4512418295722439 0.0025850269171060064
-2.345742098242054 0.013773480829782787 -1.567967773518474 0.010788819679639348 -1.0692942324094534 0.008846677187248134 -2.0027154194438577 0.013008273117638969
-0.8669890403747615 0.008391211390495305 -2.03104504742806 0.012477074032374736 -1.1851594255305888 0.0094762579939561 -1.692030806979172 0.01174314343900187
-2.181096368283042 0.013086750029586258 -2.142755400016914 0.013346474471036348 -2.110603332240143 0.013242694039479834 -1.0454021970872476 0.00874451252949257
-0.38312301635742585 0.006111738204956056 -0.4350893974304241 0.006073188185691835 -0.4774584665894552 0.006435104968026283 -1.0164592742919978 0.008815684318542483
-1.6610441874247122 0.011266538270690948 -1.3695069313049384 0.00991287255287171 -2.194565260410318 0.013288284495472914 -1.4723650206113308 0.010668318227661077
-1.63157426636263 0.011020359002331361 -0.735118180448631 0.007696003682706764 -2.4800158204831053 0.014506047908111218 -0.5359046863857702 0.006410452444863041
-2.164238660037526 0.013095260625705124 -0.3783116340637248 0.006076871514320375 -2.0629378335317683 0.013153328036860333 0.2983563359477538 0.0031453034634905635
-1.736591643327855 0.01183924973645481 -2.682584970910113 0.015467584234313117 -2.06084405556322 0.013027787563391034 -1.6707227221923027 0.011438447978493065
-1.9048227325547575 0.012494628860207744 -0.4270324707031291 0.006152542114257813 -1.6183747118630054 0.010977859382146564 -1.6740958511247381 0.011500202384122533
